assign/emphasis/best_autoencoder.pth (torch, 41916 bytes, 10 tensors)

encoder.0.weight f4 [13, 13]
00000000: a591 123e 3a66 bfbd 87c4 0abc e903 78be
00000010: 15ba 8c3e c0ad 88be 2b43 2cbe 7023 84bd
00000020: 4f59 3abe 0bfd d03d ab21 7bbe 8b47 803e
00000030: 38a2 833e ef5e 80be 77b9 803e f6c2 aebd
00000040: 3510 42be e387 2cbc 4055 153e b370 c73c
00000050: cdb0 f9be 6cc3 403e a9b9 c1be db45 9f3d
00000060: fe8a 343e e379 a3be a9fa 7f3e fb4d 523c
00000070: 3380 d93d 7de5 633c ce88 1c3d b745 fc3e
00000080: 8513 ab3f 739b 903f c903 f3be a217 713f
00000090: 0ec2 363f 4e27 403f f9d6 883f b9bc 343c
000000a0: 2082 8bbe 95d6 f2be 999a 3b3d 62ad 80be
000000b0: e702 f33d 99ae cb3e 9699 dcbe adf9 733e
000000c0: 0717 83be ccc8 653f 9edd e8bc 5656 9c3d
000000d0: 96e3 773d 5f47 07be ffe1 36be 256e acbd
000000e0: 249b c23d c0b7 883c b796 e3bd 6d67 9cbe
000000f0: a142 12be 16ad 14be 2399 a43e de17 3bbd
00000100: b5b6 babe 2123 e53e 60b3 cc3e 0194 c13e
00000110: 495c 1bbe 53ed ee3d c39d 2c3e 67ca 22bf
00000120: 661e 33be e8ce 11bf 4745 f1bd 12aa debf
00000130: b6af 84be 3a6e cdbe 4172 10be 5b41 c6be
00000140: a312 36be abd5 a33d fc5f fe39 da43 d9bd
00000150: f54d dd3d 722a a9be 4de0 b5bc 4c69 7fbe
00000160: e656 cc3e e12b 773e 4d51 31bd 2675 65be
00000170: 5f0e eebe 5ef6 103e a793 f33d 74b6 d03c
00000180: 8ae4 8e3d 1870 0a3f eb57 d63e f13b 51bd
00000190: 30f4 fa3e 27ca 013f 382c 2cbe 547a 183f
000001a0: 395a 71be 0983 983e 9a37 c3bd 632c bf3e
000001b0: cab6 783d 367a d33d 4941 ac3e 838c 2dbf
000001c0: 555d 133f 6097 07bf ea49 a33f a2e8 c23d
000001d0: 785b b0be d8db 18be d687 09be f0f9 02be
000001e0: 10e6 0ebd ab9c 8dbe 17f8 1bbe 0bae 96bd
000001f0: fc52 853e 6ae2 243e 1668 5c3e c3bd 8abe
00000200: ca2f af3d 10f2 633e 8849 8dbe b8cd 4abe
00000210: e65e 40be ba68 7ebe 1eb9 3e3e ef4d 8cbe
00000220: 7ab9 e1bd 90a6 be3d c4dc 86bd 3074 c1bd
00000230: bba6 fdbd 9a2b 8bbe b652 3cbe 8a57 213e
00000240: 7fef 38be d2d0 71bc 92ec 0e3e f508 7fbe
00000250: d496 1ebe 6293 29be fc06 673e 2aa1 81be
00000260: 778d 97bd 9fa5 7d3e bb9d cbbd 1d8b a23b
00000270: a154 1fbd 8b1f 1dbe 8159 b0be 9bcc 553d
00000280: a818 173e 0094 2f3d 5318 bd3c 970b 16bc
00000290: ed0e cbbe 71c6 763e d136 073f d2cf c3bb
000002a0: 9fa2 c8bd
0.14313371 -0.0934567 -0.008469707 -0.24220242 0.2748572 -0.2669506 -0.16822498 -0.06452072
-0.18198131 0.10204514 -0.24524562 0.25054583 0.257097 -0.2507243 0.25141498 -0.085332796
-0.18951495 -0.010530445 0.14583302 0.024345731 -0.487677 0.18824548 -0.3783696 0.07776996
0.17631146 -0.3192893 0.24997963 0.012835975 0.10620155 0.013909695 0.038216405 0.49271938
1.3365332 1.1297439 -0.47463825 0.94176686 0.71389854 0.75059974 1.0690604 0.011031323
-0.27247715 -0.47429338 0.045801733 -0.2513228 0.11865788 0.39781645 -0.43085927 0.23825713
-0.25603506 0.89759517 -0.028425988 0.07633655 0.060519777 -0.1321082 -0.17859648 -0.08419446
0.09502247 0.016689181 -0.11112731 -0.30547658 -0.1428323 -0.14519152 0.32148084 -0.04567706
-0.3646752 0.44753364 0.39980602 0.3780823 -0.15171923 0.1166636 0.16857056 -0.6359009
-0.17492065 -0.5695634 -0.11780792 -1.7395651 -0.25915307 -0.4012316 -0.14106084 -0.38721737
-0.17780547 0.07999738 0.0004851817 -0.10608645 0.10805885 -0.33040196 -0.022201682 -0.24942511
0.39910048 0.24137832 -0.043290425 -0.2240797 -0.4649534 0.14156482 0.11893397 0.025477625
0.06977184 0.5407729 0.4186395 -0.051082555 0.49014425 0.50699085 -0.16813743 0.5956166
-0.23569573 0.29787472 -0.095320895 0.37338552 0.060721196 0.10326044 0.3364356 -0.6779253
0.5756429 -0.52965355 1.2756932 0.095170274 -0.34444785 -0.14927614 -0.13430724 -0.12790656
-0.034887373 -0.2765859 -0.15231358 -0.07357415 0.26039875 0.16101995 0.2152408 -0.27097902
0.08554037 0.22260308 -0.27595162 -0.19805038 -0.18786201 -0.24844638 0.18625304 -0.2740321
-0.11021705 0.09309113 -0.065850765 -0.09445989 -0.12385317 -0.27181703 -0.18390927 0.1575605
-0.1806011 -0.014759259 0.13957432 -0.2490576 -0.15487224 -0.16560128 0.22561258 -0.2531827
-0.07400029 0.2477021 -0.09942194 0.0049604313 -0.038899068 -0.15344064 -0.34443286 0.05219708
0.147555 0.042865753 0.023082888 -0.009158037 -0.39659825 0.24099137 0.5281802 -0.005975702
-0.097966425

encoder.0.bias f4 [13]
00000000: f557 873e 8af2 a6be e402 593e 3431 09bd
00000010: 772b 49be 3f10 adbe 3be4 c9bc bd4c 9e3d
00000020: 70f5 2cbe 0c9f 7ebe bbc3 26be 1739 3fbd
00000030: 769d 4abe
0.26434293 -0.32606918 0.21192509 -0.03349419 -0.19645487 -0.33801457 -0.024644962 0.077294804
-0.16890502 -0.24865359 -0.16285603 -0.046685304 -0.19786629

encoder.2.weight f4 [300, 13]
00000000: 581b c5bc 8a6c a93d 44a2 c9be d3ea 4abe
00000010: 896f 1ebd a4db a43e 7100 0fbe c5d3 f8be
00000020: 3808 30bd 3145 853e fff7 74be 35f0 6cbe
00000030: 526c 42be d9a0 40bc d0be 4f3e 9578 d1bd
00000040: ba58 0ebf 87a8 083e 0275 4d3e 9b67 eebe
00000050: 348a 85bd 2f9c d5bd a1bb 893e f232 21be
00000060: 3ab7 813e 349c dbbe 9e83 603e c009 4cbd
00000070: 87c8 79bd b7e5 a5bc 9b7a 633e e2b1 33be
00000080: 4a0b a6bd 91d3 093e 39c7 eebc 34d4 543e
00000090: 79ad 293e 5fe6 803d 1010 b93e 788d 803e
000000a0: 924d 4b3d 84bf 07bf c399 acbd 880a 80be
000000b0: 793a 083e 0c83 69bc 3b9d 1ebf 41ff bcbd
000000c0: d05b 433e 7189 f63c db88 7d3e 531d cabe
000000d0: f03a 0ebe 94d7 96bd 928b a3be 4948 03bd
000000e0: 0c72 8a3d 7ff6 a2bd 1bbd 0b3e 4d43 47be
000000f0: 8676 22be 9fd5 1a3e 39ca 203e 3f7f 9b3d
00000100: 6620 08be 9744 2c3e 7173 293e 8e3e 063e
00000110: 4a19 31bc 7a5b a83d dd72 c73d 4a65 04be
00000120: 9c4f 153e 4b05 ebbe b8d4 f4bd a5d9 033c
00000130: 0524 6abe 3d40 0cbf c141 543e 3cca 6cbe
00000140: b064 bcbd 045d 73bc d46a 32be 7c26 50be
00000150: bdaa 4d3e f512 3d3e ffe0 8cbd 0458 a13d
00000160: 9e57 953d 1a59 49be 912b 8b3e 876c 2fba
00000170: a0a7 4fbe dbe3 83be 4535 86be f7ff 903d
00000180: c16c 70be 946f 1cbe b5ce d63d 8489 2e3e
00000190: 82d8 683e 1b01 7c3e e85b 0b3e 450f 193e
000001a0: 8ae0 0d3e 8470 8abe 774a 4abd 8378 b43d
000001b0: d655 69be e26c 51bd 6f26 ecbd 9e89 213e
000001c0: 3359 d0bd 0a8d 8abd 87ea 8b3e e6a5 6abe
000001d0: 52af 49bd 639a 90bd e13d 893b ab9c 89be
000001e0: 1df1 28bd 4488 8dbe 678a 68be cfba 0f3e
000001f0: e315 06be c346 9abc 1a3a 763e 597c 773e
00000200: 40c2 3cbe 335b 2e3c d6f6 dc3d 7d2a 973e
00000210: 5795 91be 52cb 13bd 5e19 7c3d ed1c bc3d
00000220: b96b 9cbe 48aa cdbe 0bd8 12be 4c64 6a3e
00000230: 6ffb a63d b6ce 5e3d 8376 8ebe 761c 383e
00000240: 96eb 243e 7bcf 92be 9e19 debd 3f57 e5bd
00000250: 1e0b 57be d20c 45bd 0ff2 93be 7b28 df3d
00000260: 8cdd 54be e0f5 693e 603e 893e 4845 61bc
00000270: 5d23 55bd 3cc5 8abe ab92 2d3d 7b9d 363e
00000280: d682 70bd 3372 78be db75 be3d ba21 0d3e
00000290: 8ec1 87be ee95 513e b2e0 543d 7d34 1d3e
000002a0: 39be d3bd 7dbd 63bc 49f1 27be 9d3b 273e
000002b0: a1d3 86bd 4255 8c3e c032 75be 20cc df3d
000002c0: 3114 ffbd 3370 a7bd 05a9 82be 0159 bc3d
000002d0: 9f54 60be e159 943d 81b9 653e 6609 27be
000002e0: ca3f d5be 7daa afbe d332 0b3c 0a0e c13e
000002f0: 2ac3 b6be 1ec2 853d e1e2 31bd bfbf d93d
00000300: 387c 30be f30a 0fbd c613 7fbe b63e 88be
00000310: 5b9d 8bbe 1dc5 f2bd 7f86 35be 6101 5bbe
00000320: ec74 1ebe f1b1 31be f81f 603d d287 10be
00000330: dda2 16bd 62da 9fbc 2daf a13b 19e4 3dbe
00000340: d739 863e df4f 433e 8d87 b2be c362 edba
00000350: 847c 08be 85ef a2bd 5ff0 02be b23a 0dbf
00000360: 858c 343e 6d3a 1ebd 0fa2 143e 57d6 02be
00000370: 28b1 02bf e0ec 46bd 2b36 bdbd 26e5 aebe
00000380: 09ee 0cbe 5daf 8fbe 65a6 403d b8d5 a5be
00000390: a2b5 883d 9cdb b2be 77dd 8abe c174 903d
000003a0: 6249 453e b672 cabe d9e0 fbbc 8363 75be
000003b0: 959e 3dbe 7e6c 9fbe 287c 79be 5d63 c7bc
000003c0: 3571 cbbd e753 013d 4b0b 84be b426 803e
000003d0: f73e da3d 4a3a 24be 0e3e c2be 0099 903d
000003e0: ddf8 9ebd 3018 96be b737 febe 8140 d03d
000003f0: 02fb 203e b8fa 99bd 4103 18bf 1391 2ebe
-0.02406089 0.08272655 -0.3938161 -0.19816141 -0.038680587 0.32198822 -0.13965012 -0.48599067
-0.042976588 0.2602935 -0.23922728 -0.23138507 -0.18986633 -0.011757099 0.20287633 -0.10228077
-0.55604136 0.13345538 0.20064166 -0.4656342 -0.06520501 -0.1043018 0.26900962 -0.1574209
0.25335103 -0.4289261 0.21925208 -0.049813986 -0.060982253 -0.020251138 0.22214739 -0.17548326
-0.08107622 0.13459612 -0.029147731 0.20784074 0.16570081 0.0629394 0.36145067 0.25107932
0.049634524 -0.53026605 -0.08427765 -0.25008035 0.13303556 -0.014252435 -0.61958665 -0.09228373
0.19077992 0.030094834 0.24759237 -0.39475498 -0.1388967 -0.07365337 -0.3194242 -0.03205136
0.06760034 -0.07957172 0.13646357 -0.19459267 -0.15865526 0.15120552 0.15702142 0.0759263
-0.13293609 0.1682304 0.16547944 0.131098 -0.010809252 0.08220573 0.09738705 -0.12929264
0.1458115 -0.45902476 -0.119546354 0.008047496 -0.22865303 -0.5478552 0.20728208 -0.23124021
-0.09198892 -0.01485372 -0.17423564 -0.2032718 0.20084663 0.18464263 -0.06878852 0.07878116
0.07292102 -0.19662896 0.27181676 -0.0006691892 -0.20278788 -0.25759777 -0.26212516 0.070800714
-0.23478986 -0.15276939 0.10488645 0.17044646 0.22738841 0.24609797 0.13609278 0.14947231
0.13855186 -0.27038968 -0.04938742 0.08812048 -0.2278665 -0.05112923 -0.11530768 0.15775153
-0.101732634 -0.06765182 0.27327368 -0.22914848 -0.049239464 -0.07060697 0.0041882847 -0.2687734
-0.04124557 -0.27643025 -0.22709046 0.14036106 -0.13094287 -0.01883257 0.24045601 0.24168529
-0.18433475 0.010641861 0.10789268 0.29524603 -0.2843425 -0.036082573 0.06154763 0.09185205
-0.30550936 -0.40168977 -0.14340226 0.22889823 0.08153426 0.054396354 -0.27824792 0.17979607
0.16105494 -0.2867392 -0.1084473 -0.111982815 -0.21000335 -0.04810793 -0.28895614 0.10896393
-0.20787638 0.228477 0.268054 -0.013749428 -0.05203568 -0.27103603 0.0423762 0.17833512
-0.058718525 -0.24262314 0.09299823 0.13782397 -0.26514858 0.2046735 0.0519721 0.15352054
-0.103390165 -0.013900158 -0.16400637 0.16331334 -0.06583334 0.27408797 -0.23945141 0.10927606
-0.12455023 -0.08175697 -0.25519577 0.09196664 -0.2190728 0.072437055 0.22434045 -0.16312179
-0.4165023 -0.3430976 0.008496004 0.37706023 -0.35695773 0.065311655 -0.04342926 0.10632276
-0.17234886 -0.03492255 -0.24909887 -0.26610345 -0.2726849 -0.118540026 -0.17727087 -0.21387245
-0.1547429 -0.17353036 0.054717988 -0.14114311 -0.036776412 -0.019513313 0.0049342127 -0.18544044
0.26216003 0.19073437 -0.34869042 -0.0018111098 -0.13328749 -0.07955841 -0.12787007 -0.55167687
0.17631729 -0.038629938 0.14514945 -0.12777077 -0.5105157 -0.048565745 -0.09238847 -0.341592
-0.13762678 -0.2806348 0.047033686 -0.32389617 0.06675269 -0.34933174 -0.2712209 0.07053519
0.19266275 -0.39540642 -0.030746864 -0.23963742 -0.18517525 -0.3113746 -0.24363768 -0.024339372
-0.09933702 0.031574156 -0.25789866 0.25029528 0.10656541 -0.1603786 -0.3793797 0.070604324
-0.07762311 -0.2931533 -0.49651882 0.10168553 0.15720752 -0.07518524 -0.59379965 -0.17047529

encoder.2.bias f4 [300]
00000000: a023 87be 4b63 51be e2ef bb3d 339d 17bf
00000010: cdb8 323e 5f36 dfbd bf75 44be 9eb8 193e
00000020: d0b2 863e 8008 d7bd 1dbe c2be d0de c2be
00000030: 8fc3 593d 209d e0bc ff6a 4abf 0dac b9bc
00000040: 29be c8be 605c 56be 841b cfbe bfe1 a8be
00000050: ea51 d1bc e180 8bbe ae59 1bbd 762f 16bf
00000060: ee0f 52bd d451 0cbd e1c1 6ebd 11d1 763d
00000070: 5233 dcbe 6f4e 81be 5b98 1bbf 7609 b33d
00000080: 661c ab3d e0e3 4cbe c006 8dbd cf00 3fbb
00000090: e585 293e c652 4b3e 4115 d3be b474 683e
000000a0: 5c63 4f3e 0588 ed3e e555 05bf fbf2 b3be
000000b0: 896d 183f e00f 2e3e a6f3 163e 04d4 d1be
000000c0: 676a 503e b691 ffbd 1903 b9be 4f53 013e
000000d0: eff4 35be 1bc1 02be 4dea efbe 1c15 833d
000000e0: 2435 0f3d 1b54 95be 7258 e63d ffd1 dfbd
000000f0: cc09 e3bd 23e2 803e a4cc e5bc a009 173e
00000100: 0081 853e d411 29be c86e bd3d 9854 f63c
00000110: ddae 8c3d 5e5b 7fbe f01d b3bc 818b eabd
00000120: 6af2 ecbe 985c 0bbe 4daa b9be ac6a 3e3e
00000130: ee25 463e 7628 6f3e 4fec 4fbd 291c d7bd
00000140: e0c4 aabd 3866 75be 470c 383e 6e93 843e
00000150: cde6 f4bd d190 04bf e594 273e 2a54 bf3d
00000160: b7b3 313e 836e 2fbe 91a9 09be 6a11 d3bd
00000170: 336a 023e a0b2 4cbe c75e 92be 60a9 8d3d
00000180: f400 90bc fa6d 75bd 98f4 10be 8496 29bd
00000190: b1a3 ef3c 243d 1bbe 3a98 9e3d af8a 1dbe
000001a0: 46d4 13bd ec54 25be e3fc a1be c592 aebe
000001b0: 5f1a 25be e6d5 99bd 1039 4f3d 90b5 08be
000001c0: b066 e13b c407 a83d e16f babe 12e9 27be
000001d0: 40be 033d 4919 7ebd dc59 7fbd df34 963d
000001e0: 6369 40be 98df 0b3e b634 c13d 2800 f3bd
000001f0: ae79 f53d 808c 333e 9cc5 5f3d 5ccc 11bf
00000200: 4250 a3bd 537a 1cbe d448 573d 66dd 60be
00000210: baea f4bd 0219 923c 0de9 69bd 361b 8d3d
00000220: c06d 2dbe 35e1 443d f149 afbe 9178 c6bd
00000230: 0bb8 13be 806c 17be c971 d03c accd 96bc
00000240: d71d 62be 133a 38bf 58c8 b9be f870 2bbf
00000250: 42be 143d 88bb 6b3b 404c 103c 8cca 61be
00000260: fc9d 62bd e615 95be 36d9 16bf ee1b 9ebe
00000270: 8f31 803e 7ec3 693e a283 5abe 0954 813d
00000280: e6c6 443e f455 ad3e da7d 413e eb24 f93d
00000290: 6ee9 1f3d bf57 d8be 8095 a13d 2eea b2bd
000002a0: 7f29 0dbe 3a8a bebc bf0c 1b3d ccb9 a13d
000002b0: 0978 f93d 3a6e bcbe 86a6 0a3f 4879 3a3c
000002c0: 087d b23d 2dc9 653c 3b03 9ebe 960e 0f3d
000002d0: 4f9c 313f 97c7 debe e48b 543e 21fa 56be
000002e0: 2fb3 11be 445f b8be 82a9 873e 566b 413d
000002f0: 67d5 89be b98b 3cbe 718b 643d 8aa1 13bf
00000300: 3239 023e 660d 52be 16c1 2cbf 743c a7be
00000310: 381c 83be 2586 a8be 4dec 80bd 45c4 b1be
00000320: b1c3 3a3e 8e5f 1c3b 25e1 5abe 6a3b 9bbf
00000330: ad10 67be 3935 9dbd bdd1 d53d 410a 1b3e
00000340: 98d1 18bf c2e4 03be 536c 733e 3521 a6be
00000350: c72c c1bd 9648 78be c974 09bf 865a 00bf
00000360: 47db adbe 638d 40be 15b5 94be 7bea 8cbd
00000370: 9d3b 0dbd ad91 04bf e6d3 46be 7ae5 be3d
00000380: 6d43 4a3d 829f 32bd 2692 1bbe 5d2b 073e
00000390: 1301 5cbd cd3b 51bf 2b7e e3bd a732 40bf
000003a0: e32d 13bf 2347 dfbe 414e 393a 19ae 613e
000003b0: f305 563d d1c5 203e b09c d63e ce0a dbbc
000003c0: d26c 40bf cbd5 003e b43e c5be 4c5d 47be
000003d0: de03 95be 1334 8cbc 34af 0d3e 0859 f2be
000003e0: b585 58be a4fd 87be eabb 203e fb4e 06bf
000003f0: 9371 9cbe 7425 2c3e 5504 05bd b6d9 863e
-0.26394367 -0.20448034 0.091766134 -0.5922424 0.17453308 -0.10899042 -0.19185542 0.15011832
0.26308298 -0.10499668 -0.3803567 -0.38060617 0.053165015 -0.027418673 -0.79069513 -0.022665048
-0.3920758 -0.20933676 -0.4045068 -0.3298473 -0.025551755 -0.27246764 -0.037927322 -0.5866617
-0.051284723 -0.034257725 -0.058290366 0.060257975 -0.43007904 -0.25255153 -0.6077935 0.08742039
0.08355026 -0.20008802 -0.06886053 -0.002914477 0.16554983 0.19855794 -0.41227153 0.22700769
0.20252746 0.46392837 -0.5208419 -0.35146317 0.5954214 0.16998243 0.14741382 -0.40982068
0.2035309 -0.12478964 -0.36135176 0.12629436 -0.17769216 -0.12768976 -0.46858445 0.06400511
0.03496279 -0.2916573 0.11247338 -0.109287255 -0.11085853 0.2517253 -0.028051682 0.14749765
0.26074982 -0.16510707 0.092496455 0.030069634 0.0686929 -0.24937198 -0.021864861 -0.114523895
-0.46278697 -0.1360954 -0.36262742 0.1859538 0.19350407 0.23355278 -0.05076247 -0.10503418
-0.08338332 -0.23964775 0.17973433 0.2589373 -0.11958084 -0.5178347 0.16365393 0.09342225
0.17353712 -0.17132 -0.1344359 -0.10306056 0.12735824 -0.19990015 -0.28587934 0.06917071
-0.01757858 -0.059919335 -0.14155805 -0.04140331 0.029252859 -0.15160042 0.07743879 -0.15384935
-0.03609111 -0.16145676 -0.3163825 -0.3409635 -0.16123341 -0.07511501 0.05059153 -0.1335051
0.0068786964 0.08204606 -0.36413482 -0.16397503 0.03216386 -0.062035833 -0.062341556 0.07334303
-0.18790202 0.13659513 0.09433882 -0.11865264 0.11986099 0.17534065 0.054631814 -0.5695245
-0.07974292 -0.15281038 0.05255969 -0.21959457 -0.11958833 0.01783419 -0.05710702 0.06889956
-0.16936398 0.048066337 -0.342361 -0.09690965 -0.14425676 -0.14787483 0.025444882 -0.018408619
-0.22081695 -0.71963614 -0.36285663 -0.6696925 0.036314256 0.0035969932 0.008807242 -0.22049922
-0.055326447 -0.2911827 -0.5892519 -0.30880684 0.2503781 0.2282848 -0.21339276 0.063148566
0.19216499 0.3385464 0.18895665 0.12165245 0.039040975 -0.42254445 0.07889843 -0.087360725
-0.13785361 -0.023259271 0.037853952 0.07896766 0.12181098 -0.36802846 0.54160345 0.011381455
0.08715254 0.014025015 -0.3086184 0.03492602 0.69379133 -0.4351165 0.20756489 -0.20993854
-0.1422851 -0.36010182 0.26496512 0.047221504 -0.26920626 -0.18412675 0.055797044 -0.57668364
0.12717131 -0.20512924 -0.67482126 -0.3266331 -0.25607467 -0.32914844 -0.06295071 -0.34720054
0.18238713 0.0023860666 -0.21374948 -1.2127507 -0.22564955 -0.07676167 0.10440395 0.1514063
-0.59694815 -0.12880233 0.23771791 -0.3244721 -0.09432369 -0.2424644 -0.53693825 -0.5013813
-0.33956358 -0.18803935 -0.29044405 -0.06880661 -0.03448068 -0.51784784 -0.1941677 0.09321113
0.04938071 -0.04360915 -0.1519247 0.13200136 -0.053711962 -0.81731874 -0.11108049 -0.7507729
-0.5749189 -0.4360896 0.00070688507 0.22039069 0.052251767 0.15700461 0.41916418 -0.02673855
-0.75166047 0.12581556 -0.385244 -0.19469184 -0.29104513 -0.017114675 0.13836366 -0.4733355
-0.21144755 -0.265607 0.15696684 -0.52464265 -0.305554 0.16811162 -0.032474834 0.26337975

encoder.5.weight f4 [300]
00000000: 4a72 843f 9485 1b3e f72a a53e 6d90 393f
00000010: e742 723f 7b05 493e 0000 803f 0000 803f
00000020: 0000 803f 8770 2b3f 40a9 393f 9ed7 5c3f
00000030: d4e8 6f3f 0000 803f b440 f73e 0000 803f
00000040: 6964 523f b6fd 853f 9985 943f c12d 503e
00000050: 7524 973e 0000 803f f44f af3d 6661 9c3f
00000060: 5917 c1bc 0000 803f 9ed5 063e 0000 803f
00000070: 5bd3 9b3f 60b3 643f 3178 253e d593 563f
00000080: 0000 803f 9d4a 673f 0000 803f 0896 3a3f
00000090: 8841 f83e 96d3 7c3f 37ad a53d 0000 803f
000000a0: 0000 803f bdb8 28bd bc9f 893f 9ba1 8d3f
000000b0: b4b7 bd3f 6d9d 4abd 9bf9 913c 162d 743f
000000c0: f8bb c13d 0000 803f 58f2 273f 8e9f ae3e
000000d0: b365 433f d22d 463f 091f c13f 0000 803f
000000e0: 0000 803f d2be 543f 0000 803f c7c6 023e
000000f0: a8bc 403f 0000 803f 3bd5 e23d 4288 6c3f
00000100: 2820 513d 4933 033f 93af 1f3f 3b62 453f
00000110: 0000 803f b0bd 8a3f 0768 623d 0000 803f
00000120: 37d2 253e f743 353f a090 8e3f f288 d23d
00000130: 0000 803f 0000 803f 7232 c1bd 474d 6a3f
00000140: 0000 803f 8cfd 773f 0000 803f ca05 113e
00000150: 9b4c 5d3f db2c 6c3f 9f8c 0b3f 0000 803f
00000160: 8c45 2dbd 1413 9e3e 2855 6f3f 835d 2b3f
00000170: 0000 803f 748c 85bd d700 a13f e3ca ef3d
00000180: 077f 3f3f 0bee 9f3f 0000 803f ebf9 863c
00000190: 0000 803f 0000 803f 8c42 55bc 9d8c 4b3e
000001a0: d620 9c3f 22bb 7b3f fe57 2e3f 1e70 573f
000001b0: 8c4a 693f 9b7d 6d3f e78a d23e 0000 803f
000001c0: 0000 803f 8a3c 663f 8b0b 693e 0000 803f
000001d0: 53c7 8dbd 2d46 e73d 0000 803f f3d8 7a3f
000001e0: 0000 803f c34f 723f b168 843f f76c 793f
000001f0: daca 343f 2b59 b63e 5ecc 6a3f c0d5 423f
00000200: 979f a53f 43a3 443f 0000 803f 527c 453f
00000210: 8b2c 353d abd1 753f b186 183e f65d 7a3f
00000220: f6d8 6c3f 9ca7 5ebd 73c1 113f 03bf 393f
00000230: 0000 803f 649b 823f 40b1 603f 8c7f 353f
00000240: a0d5 923f c51f 553e cb66 5a3f c13e cd3e
00000250: cb86 7c3f 9c38 6c3f 4e49 623f 4c39 423f
00000260: a4a6 943f 40a7 9a3e 00d3 c83e eed9 1e3f
00000270: 2c2e 3f3f 0000 803f 3fc0 4d3e 6866 803d
00000280: 0000 803f 5e76 683f 0000 803f 0708 653e
00000290: 889b 423f 8bcf 693e 0000 803f ca52 0e3e
000002a0: ff0c 773d 761d 873f 1dba 2c3f 8c59 6c3f
000002b0: f2c4 713f dcf7 9e3e 0736 9dbd 1c6e 533e
000002c0: 0000 803f ec3b 8d3f 3a12 753f 1b6a 0d3f
000002d0: 6d15 023d 79b3 0c3e 60c4 193f b6ba 6a3f
000002e0: b93c 1e3f 9205 6a3f 3ea1 443f d56e 33bd
000002f0: cbfd 383e a82e 663f d39c 443f d84a 5b3f
00000300: 9648 d53d a407 803f c5ca b93d 44a0 703f
00000310: 0000 803f 45cd 413f a944 763f 8343 0c3e
00000320: 44a0 703f 1f76 3ebd 0000 803f 4869 793d
00000330: d5e7 433f d976 443f 54ea 3c3f 0000 803f
00000340: 3c24 b93f 0000 803f aeb9 82bd 4179 973f
00000350: 4026 6e3f 9fbc fa3e 6f48 ab3e a76c 823d
00000360: 3a88 6c3f 64ef 553f dbcb 5c3f 550b 8e3f
00000370: 4562 96bd e47a 8a3d 0000 803f 0b55 443f
00000380: 0000 803f 0000 803f d278 a83f 2855 6f3f
00000390: 5479 463f 2930 89bb 6632 a13e 3f2c 4a3f
000003a0: ccb1 653f 2298 553f cf75 213f 0000 803f
000003b0: 3bba a93e 4cc2 933f f815 223f 329b 163f
000003c0: 90c4 183e 53c7 5c3f 6b24 8c3e eab1 513d
000003d0: a59b 8e3f 248d 903f 0000 803f 3dc9 8c3f
000003e0: 0000 803f 2b3a 743f 4b29 6a3f 7c07 303e
000003f0: 2d61 0d3f 6ea7 6d3f 5224 543d 0000 803f
1.0347378 0.15187675 0.32259342 0.72486 0.94633335 0.19630997 1.0 1.0
1.0 0.6696858 0.7252388 0.86266506 0.9371464 1.0 0.48291552 1.0
0.82184464 1.0468051 1.1603271 0.20329954 0.29520002 1.0 0.08560172 1.2217224
-0.023570703 1.0 0.13167426 1.0 1.2173876 0.89336205 0.1615913 0.83819324
1.0 0.90348226 1.0 0.7288518 0.48487496 0.98760355 0.08089679 1.0
1.0 -0.041191805 1.0751872 1.1064943 1.4821687 -0.04946654 0.017819216 0.95381296
0.0945968 1.0 0.6560416 0.34106106 0.76327056 0.77413666 1.5087596 1.0
1.0 0.8310367 1.0 0.1277114 0.75287867 1.0 0.11075827 0.9239541
0.051056057 0.5125013 0.6237728 0.7710301 1.0 1.0839138 0.05527499 1.0
0.16193472 0.7080683 1.1137886 0.102800265 1.0 1.0 -0.0943345 0.91524166
1.0 0.96871257 1.0 0.14162365 0.86445016 0.92255944 0.54511446 1.0
-0.042302653 0.3087393 0.93489313 0.6693956 1.0 -0.0652093 1.2578381 0.117086194
0.74803203 1.249452 1.0 0.016476592 1.0 1.0 -0.013016354 0.19877858
1.2197521 0.98332417 0.68103015 0.8415545 0.91129375 0.92769784 0.411216 1.0
1.0 0.89936125 0.2275831 1.0 -0.06922784 0.11292682 1.0 0.9798729
1.0 0.94652957 1.0344449 0.9743189 0.70622027 0.35614905 0.9171809 0.76107407
1.2939328 0.7681162 1.0 0.7714282 0.044231933 0.9602305 0.1489513 0.97799623
0.92518556 -0.054359064 0.56935805 0.72557086 1.0 1.0203671 0.8777046 0.70897746
1.1471443 0.208129 0.853131 0.4008694 0.9864318 0.9227388 0.88393104 0.7586868
1.1613355 0.30205727 0.3922348 0.62051284 0.7467983 1.0 0.20092867 0.062695324
1.0 0.90805614 1.0 0.22366343 0.7601857 0.22833078 1.0 0.13898769
0.06031513 1.0555866 0.67471486 0.9232414 0.9444114 0.31048477 -0.076763205 0.20647472
1.0 1.1033912 0.95730937 0.5524003 0.031758714 0.13740338 0.6006527 0.9169115
0.61811405 0.9141475 0.76808536 -0.04380687 0.18065564 0.8991494 0.76801795 0.8566108
0.10414235 1.0002332 0.09071878 0.93994546 1.0 0.7570384 0.9619852 0.13697629
0.93994546 -0.046499368 1.0 0.06089142 0.7652562 0.7674385 0.73795056 1.0
1.4464183 1.0 -0.06383072 1.1833879 0.93027115 0.4897203 0.334537 0.0636838
0.92395365 0.83568406 0.8624856 1.1097208 -0.07342962 0.06761721 1.0 0.76692265
1.0 1.0 1.3161871 0.93489313 0.7752888 -0.0041866493 0.31483763 0.78973764
0.8972442 0.8343526 0.63070387 1.0 0.33149895 1.154367 0.6331477 0.5883056
0.14918733 0.86241645 0.27371535 0.051195063 1.1141249 1.1293073 1.0 1.0998913
1.0 0.9540126 0.9146926 0.17190355 0.55226403 0.928336 0.05179245 1.0

encoder.5.bias f4 [300]
00000000: b7ee e73e 9fbf 03bf fef5 eebe d74d f53e
00000010: d690 03bf 2d6c 04bf f86d 02bf 8c77 03bf
00000020: cee7 02bf 8754 03bf 3eb0 013f eb64 043f
00000030: 8d67 02bf 0f27 043f 8d71 023f d2e9 033f
00000040: df37 e23e 261d ccbe be3f c9be 82d3 04bf
00000050: 3a5a 023f 132d 043f e68d 033f a1f9 ba3e
00000060: c0ed 03bf 4afc 033f 9fcf 013f 6fe6 033f
00000070: e362 eb3e 891f 04bf 715d 033f 3139 023f
00000080: 17c4 02bf 74b2 03bf 90f3 03bf e92f 023f
00000090: 6214 03bf 44a3 03bf b004 023f 9c38 04bf
000000a0: 0336 02bf 740a 02bf 65fa 033f 418c fa3e
000000b0: b8fa f0be 74ba 02bf b263 043f 1041 03bf
000000c0: b007 f4be 0e9c 013f d6c3 03bf ea35 d8be
000000d0: 7b4e 043f a7ec 03bf 4296 c73e cc90 033f
000000e0: c70a 03bf 6f85 05bf 72fe 023f 0cd1 03bf
000000f0: 8bd9 00bf bfdf 033f e8ac e8be 609a e8be
00000100: 6b82 033f bc1b 033f 2f14 04bf ff26 02bf
00000110: 9c0a 04bf 067a c23e 4cbb 05bf b00c 043f
00000120: 9c5a 033f be5c e7be 2a93 033f 265f f4be
00000130: 927d 03bf fde1 033f 9a6c 04bf 3ad6 03bf
00000140: 32d4 033f 41cd 03bf c3f5 00bf 08e9 f1be
00000150: ca5f 04bf 0c93 ea3e 8830 f9be c362 033f
00000160: 55c6 03bf 12c8 05bf 9d06 04bf d85d ef3e
00000170: 1518 04bf d825 fbbe 2487 01bf c327 06bf
00000180: cf4f 03bf db37 ed3e 9135 04bf 5300 023f
00000190: 35f1 03bf 68e6 02bf fdfe 03bf aef5 f0be
000001a0: 25b6 04bf 2a37 e1be d9aa e7be b240 04bf
000001b0: e538 04bf 4bfe 02bf a213 03bf 77cf 02bf
000001c0: 4b5d 013f 6756 02bf 355f 023f 65e9 033f
000001d0: d6a9 f5be 37be 033f d135 04bf df3c 03bf
000001e0: 0100 04bf c553 053f cfe4 dd3e cad3 03bf
000001f0: cf05 06bf dcc6 ffbe 4e75 e5be 5fdd e9be
00000200: 8abb e33e 31ff 023f e3e6 03bf 12ca 013f
00000210: 04d8 03bf 635d 05bf 6d9a 033f 21f8 f9be
00000220: 95b2 023f c535 03bf b4da f73e 5f2d 04bf
00000230: c6d1 03bf 6d3c eb3e 9ca6 013f 5c39 033f
00000240: 48d9 f03e cc8e 043f e98b ea3e 6d4f f73e
00000250: c7b6 ffbe b3ce 033f 17f9 033f da47 dbbe
00000260: 7564 03bf 9066 f43e 870f 033f 9aae 04bf
00000270: 0fa3 03bf e691 03bf 99d2 023f da8a 033f
00000280: 77b0 033f 8430 02bf 7e72 03bf 91ac 03bf
00000290: d94a 05bf 3203 df3e c53d 04bf 9aad 013f
000002a0: 1207 043f 964e 053f 2b73 033f a1cf 033f
000002b0: 2826 033f 6374 023f b68d 00bf cc26 043f
000002c0: 917e 03bf 9513 01bf f465 f13e 221f 033f
000002d0: 4f34 f5be 0c04 05bf 24be 03bf 23d9 02bf
000002e0: 4ae7 043f e7fe 033f fc6f 02bf 5378 02bf
000002f0: 8fca 033f d9da 04bf 794a 04bf 7228 e03e
00000300: 3bfb 033f ed68 02bf aac3 023f c8ca 043f
00000310: c0ef 03bf b47f 023f 2089 f7be b3d9 023f
00000320: 9e3f fbbe 8f38 01bf e2e3 01bf 204b 043f
00000330: 0631 f43e 1087 f53e 4c7b 04bf 7fed 033f
00000340: b940 e63e 374f 023f 63f5 03bf def6 f13e
00000350: 0aa4 03bf 1535 f2be 91f8 f53e 36a3 013f
00000360: e3a0 03bf 5823 043f 0cbe 033f d52d 043f
00000370: c32c 03bf 94d7 fa3e 8a49 04bf 08d5 e53e
00000380: 17c0 033f 6bae 033f 5ccd 053f 3a75 01bf
00000390: 8764 023f 5fd6 023f e0f2 04bf 9522 023f
000003a0: 68ab e63e 8a31 043f 4ad8 02bf 43be 033f
000003b0: 50b2 033f bc00 043f 440b 02bf cd47 03bf
000003c0: 00da 013f 305e 033f 6d67 033f 40cc 033f
000003d0: 149c e73e ceb6 03bf f8c7 03bf 276e db3e
000003e0: 3db6 033f c3ca 043f b9a7 003f c9a4 033f
000003f0: 8035 053f a6b8 03bf 0236 033f bb5a 03bf
0.45299312 -0.51464266 -0.46672052 0.4791095 -0.5139288 -0.51727563 -0.5094905 -0.5135429
-0.51134956 -0.51300853 0.5065955 0.5171649 -0.50939256 0.516221 0.50954515 0.51528656
0.4418325 -0.39865988 -0.39306444 -0.51885235 0.50918925 0.5163128 0.51388395 0.36518577
-0.5153465 0.5155684 0.5070743 0.5152349 0.45973882 -0.5161062 0.51314455 0.5086852
-0.5108046 -0.5144417 -0.5154352 0.50854355 -0.51202977 -0.51421 0.507884 -0.5164888
-0.50863665 -0.507972 0.51553947 0.4893513 -0.47066283 -0.51065755 0.5171462 -0.5127115
-0.47662115 0.50628746 -0.51470697 -0.42228633 0.5168225 -0.5153298 0.38981825 0.5139282
-0.5118832 -0.5215673 0.511695 -0.51490855 -0.50331944 0.51513284 -0.45444417 -0.4543028
0.5137088 0.51214194 -0.515933 -0.50840753 -0.5157869 0.37983721 -0.5223892 0.5158186
0.51310134 -0.45187944 0.5139643 -0.47728842 -0.5136348 0.51516706 -0.5172821 -0.5149876
0.5149566 -0.5148507 -0.50375 -0.472481 -0.5170866 0.45815313 -0.4866984 0.51322573
-0.51474506 -0.5225841 -0.5157259 0.46751285 -0.51599246 -0.4905231 -0.50596833 -0.5240442
-0.51293653 0.46331677 -0.51644236 0.50781745 -0.5153993 -0.5113282 -0.51560956 -0.4706244
-0.5184043 -0.439874 -0.45247534 -0.5166122 -0.51649314 -0.5116927 -0.5120183 -0.51097816
0.5053298 -0.5091309 0.50926524 0.51528007 -0.47981137 0.5146212 -0.5164462 -0.51264757
-0.51562506 0.5208095 0.4333863 -0.5149504 -0.52352613 -0.49956405 -0.4481606 -0.45676705
0.44479018 0.5117064 -0.5152418 0.5069896 -0.5150149 -0.5209562 0.5140751 -0.4882212
0.51053745 -0.5125392 0.48409045 -0.5163173 -0.51491964 0.4594454 0.5064485 0.512594
0.47040772 0.5178039 0.45809868 0.48302785 -0.49944136 0.5148727 0.51551956 -0.42828256
-0.5132516 0.477345 0.5119557 -0.5182892 -0.5142068 -0.513945 0.51102597 0.51383746
0.5144114 -0.5085528 -0.51346576 -0.5143519 -0.52067333 0.43557125 -0.5165675 0.5065552
0.5157329 0.5207304 0.5134761 0.5148869 0.51230097 0.5095884 -0.50216234 0.516217
-0.51365 -0.50420505 0.47148097 0.5121938 -0.4789147 -0.519593 -0.51462007 -0.51112574
0.5191542 0.51560825 -0.50952125 -0.5096485 0.51480955 -0.51896435 -0.51676136 0.43780857
0.5155522 -0.50941354 0.5107981 0.5187192 -0.51537704 0.5097611 -0.48346806 0.5111343
-0.49071974 -0.50476927 -0.50738347 0.5167713 0.47693652 0.47954607 -0.51750636 0.51534265
0.44971254 0.5090212 -0.51546305 0.47258657 -0.5142218 -0.47306123 0.48041204 0.50639665
-0.5141737 0.5161643 0.51461864 0.51632434 -0.51240176 0.48992598 -0.5167471 0.44889092
0.5146498 0.51438016 0.5226648 -0.505695 0.5093464 0.51108354 -0.519331 0.5083402
0.45052648 0.5163809 -0.5111128 0.5146219 0.5144396 0.5156362 -0.5079844 -0.51281434
0.50723267 0.51315594 0.5132969 0.51483536 0.45236266 -0.5145081 -0.51477003 0.42857477
0.5144995 0.5187189 0.50255924 0.5142332 0.5203476 -0.51453626 0.51254284 -0.5131032

encoder.5.running_mean f4 [300]
00000000: ac83 1240 f669 0541 33e1 6d0b cb79 cd34
00000010: 6200 0000 6bdc 9940 0000 0000 0000 0000
00000020: 0000 0000 8ff4 d006 f60c ad07 5e43 4a00
00000030: cc29 0000 0000 0000 750e 8e40 0000 0000
00000040: 1516 9b33 b25d 9c35 2aa0 ff00 b6e8 543b
00000050: ae93 8941 0000 0000 3131 e741 e05a ce2b
00000060: 2dcb c841 0000 0000 2e8b eb41 0000 0000
00000070: e680 0c40 01c3 1100 a3df e941 b68e 4904
00000080: 0000 0000 98ed 0903 0000 0000 e820 4b20
00000090: 2a21 8108 e9db 4e03 5cd9 0735 0000 0000
000000a0: 0000 0000 55be 2342 88a1 702f 8b6c b424
000000b0: c721 553f 7f0a 6241 22f3 1c42 ab13 5a04
000000c0: 4287 a141 0000 0000 b1d3 350d 4e67 4d3f
000000d0: 465d 6a06 134b 872d 0823 5a33 0000 0000
000000e0: 0000 0000 4246 8430 0000 0000 0433 0541
000000f0: 1a71 7336 0000 0000 4c04 da41 57be 2934
00000100: fd75 e541 eee7 a607 8f29 f003 1943 8533
00000110: 0000 0000 5962 b040 060e 7b41 0000 0000
00000120: 907c 0442 252e 9c05 d840 8d20 9754 1634
00000130: 0000 0000 0000 0000 d812 db41 1847 3a00
00000140: 0000 0000 45b4 c41d 0000 0000 3362 7534
00000150: d641 c403 bde1 703f 9c81 a419 0000 0000
00000160: 21b7 0442 0fe2 2d3a d404 0000 1cdd a740
00000170: 0000 0000 fe33 7f41 60a3 c501 d6cf a740
00000180: 27c6 0e02 2343 e103 0000 0000 3d9e b541
00000190: 0000 0000 0000 0000 1d8b 2642 23e6 0f0c
000001a0: c2b8 4404 8d45 5c02 04d9 c507 a7a1 b00b
000001b0: bfd2 2d02 fb13 0000 dd47 9527 0000 0000
000001c0: 0000 0000 9dc6 0000 8e1a fd40 0000 0000
000001d0: 7cf2 af41 e1fd 1542 0000 0000 1075 7f01
000001e0: 0000 0000 b74e 0000 9945 8d05 b037 d300
000001f0: 6955 b538 acc8 d234 fa86 fa08 d8e5 8e30
00000200: 3459 f000 8fd3 162f 0000 0000 9116 1540
00000210: 83f3 8541 f306 1e02 5e28 2942 f262 0500
00000220: 5c05 0000 47fd e841 a52b 3540 8d14 1e21
00000230: 0000 0000 d252 1900 f2ad 5601 9521 6f04
00000240: 42bf 8303 42e7 8618 b3e4 eb40 d46b 7032
00000250: 851a 1304 4f01 0700 8034 0400 577c b230
00000260: 0f59 6000 bd26 2b41 e052 3c26 0dd0 e002
00000270: 96e8 cd07 0000 0000 d8f1 d515 cba7 d741
00000280: 0000 0000 e3e5 d233 0000 0000 e703 490d
00000290: 463c 9b38 bfe7 2742 0000 0000 1613 ca41
000002a0: 6f36 9d41 0136 0000 c430 8405 de2c 0100
000002b0: be04 0000 7746 8240 b35a 1f42 d9c0 2823
000002c0: 0000 0000 d2aa 1c04 63ac 1e40 893d 4709
000002d0: 413a 2e42 4cb6 993f 340d 1406 f9b5 0f00
000002e0: 8c78 e028 bd6d 0000 9765 503f 54e9 f641
000002f0: eddb 1334 a4bf 272f 4c0f 0e06 6586 4640
00000300: 6012 1234 f3ca 7e2b 1833 1641 d40d 0000
00000310: 0000 0000 77c8 2134 d1b4 4002 f6a1 7341
00000320: 1f95 0000 509c 0d42 0000 0000 3d01 3035
00000330: c69c 1a2d 1d2b f040 1883 9c3f 0000 0000
00000340: f582 8934 0000 0000 ce88 2642 69a0 2d01
00000350: 3507 0000 54f1 aa31 f333 ed09 8c6c ea41
00000360: e225 0000 d100 0200 4e9a 0300 d276 5100
00000370: d73a 0342 be7e 8241 0000 0000 54e5 8340
00000380: 0000 0000 0000 0000 922b 9702 cd1c 0000
00000390: 6885 aa03 fde5 2742 fd45 5236 ae64 0f40
000003a0: ee6f 1935 ef2b bd2d 44e3 9132 0000 0000
000003b0: 7788 8c24 8b64 8933 8e67 fe34 50c3 9233
000003c0: bc25 8141 6338 0500 ad2e 9b40 1333 f341
000003d0: 778a 8b40 65e9 3500 0000 0000 48e5 c63f
000003e0: 0000 0000 19a2 0000 e072 0100 89f6 6b2d
000003f0: 274f de32 8d00 0000 fcdd a041 0000 0000
2.2892866 8.338369 4.581396e-32 3.8272842e-07 1.37e-43 4.8081565 0.0 0.0
0.0 7.860025e-35 2.6037765e-34 6.819994e-39 1.4994e-41 0.0 4.439265 0.0
7.221767e-08 1.1650175e-06 2.3475508e-38 0.003248734 17.19711 0.0 28.89902 1.4662403e-12
25.099207 0.0 29.442959 0.0 2.1953673 1.631158e-39 29.234198 2.3692966e-36
0.0 4.0533426e-37 0.0 1.7205657e-19 7.771702e-34 6.0790404e-37 5.060772e-07 0.0
0.0 40.93587 2.188526e-10 7.8246435e-17 0.83254665 14.1275625 39.237434 2.5634808e-36
20.191044 0.0 5.6029745e-31 0.80235755 4.4079035e-35 1.5381063e-11 5.078894e-08 0.0
0.0 9.624233e-10 0.0 8.324955 3.6275655e-06 0.0 27.252098 1.5808597e-07
28.682611 2.511322e-34 1.4115474e-36 6.2055e-08 0.0 5.5120053 15.690924 0.0
33.121643 1.468712e-35 2.392924e-19 1.4000612e-07 0.0 0.0 27.384201 5.351962e-39
0.0 5.2067162e-21 0.0 2.2853128e-07 1.153496e-36 0.9409445 1.7009551e-23 0.0
33.178837 0.00066331116 1.732e-42 5.245741 0.0 15.950193 7.26008e-38 5.2441206
1.0489379e-37 1.3239725e-36 0.0 22.702265 0.0 0.0 41.635853 1.1085574e-31
2.3124526e-36 1.6183007e-37 2.9768816e-34 6.803596e-32 1.2770514e-37 7.168e-42 4.143372e-15 0.0
0.0 7.1249e-41 7.9094915 0.0 21.9934 37.49793 0.0 4.692009e-38
0.0 2.8238e-41 1.3285142e-35 1.9397267e-38 8.6466614e-05 3.9261556e-07 1.50780605e-33 1.0397185e-09
2.2072519e-38 1.3717581e-10 0.0 2.3295023 16.743902 1.1610001e-37 42.28942 4.94672e-40
1.923e-42 29.12367 2.8307889 5.355968e-19 0.0 2.325598e-39 3.9430392e-38 2.8109735e-36
7.743399e-37 3.48717e-24 7.3716674 1.3994356e-08 1.7291944e-36 6.43318e-40 3.86175e-40 1.2986544e-09
8.848156e-39 10.696958 6.533792e-16 3.3033257e-37 3.0981673e-34 0.0 8.641158e-26 26.95693
0.0 9.820703e-08 0.0 6.1942604e-31 7.402203e-05 41.976315 0.0 25.25932
19.651579 1.9373e-41 1.2431134e-35 1.07931e-40 1.701e-42 4.0711017 39.838573 9.148135e-18
0.0 1.8416149e-36 2.4792717 2.3982687e-33 43.55689 1.2008758 2.7845406e-35 1.442812e-39
2.4921275e-14 3.9367e-41 0.81405014 30.86393 1.377045e-07 1.5256646e-10 2.671847e-35 3.1019528
1.3603994e-07 9.0520576e-13 9.387474 4.96e-42 0.0 1.5067222e-07 1.4157824e-37 15.227041
5.3495e-41 35.40265 0.0 6.556691e-07 8.788697e-12 7.505263 1.2227507 0.0
2.5613522e-07 0.0 41.6336 3.189017e-38 2.585e-42 4.975087e-09 5.7104527e-33 29.303001
1.359e-41 1.83964e-40 3.3086e-40 7.4813e-39 32.80746 16.311886 0.0 4.121744
0.0 0.0 2.2212464e-37 1.0332e-41 1.0022331e-36 41.974598 3.1333177e-06 2.24052
5.715982e-07 2.1506323e-11 1.698357e-08 0.0 6.09465e-17 6.397848e-08 4.7386533e-07 6.834182e-08
16.143425 4.79405e-40 4.8494477 30.399939 4.3606524 4.951007e-39 0.0 1.5538721
0.0 5.815e-41 1.33045e-40 1.3412945e-11 2.5880196e-08 1.98e-43 20.10839 0.0

encoder.5.running_var f4 [300]
00000000: a3e5 d240 e318 b941 75dc 050c 0b13 9d35
00000010: ce30 1500 054e 3341 c930 1500 c930 1500
00000020: c930 1500 5840 2a07 3b29 3c08 5199 3500
00000030: 6f3b 1500 c930 1500 c5b5 8b41 c930 1500
00000040: e426 c033 37b7 1136 e02b ff00 7256 033c
00000050: a5bd af42 c930 1500 bd3f 6743 69ff 3128
00000060: 504a 2443 c930 1500 093d 6843 c930 1500
00000070: 057d c140 eed6 1a00 bbb5 7843 5a49 1c05
00000080: c930 1500 a87e 0003 c930 1500 5892 7720
00000090: d148 eb08 3183 f903 f3a4 b935 c930 1500
000000a0: c930 1500 991b b943 8771 b52e dff9 8825
000000b0: 0d87 1840 4874 5142 258f a043 8adf 2505
000000c0: dbec bc42 c930 1500 4bf2 0b0a 6427 4e3f
000000d0: dce6 2407 e88f 682c 1a26 2534 c930 1500
000000e0: c930 1500 a836 2e30 c930 1500 7295 b541
000000f0: 4963 f136 c930 1500 d364 2143 5ca3 7035
00000100: 6e88 3743 5665 a008 927e 9404 1847 3034
00000110: c930 1500 6c9e 6d41 c14e 7742 c930 1500
00000120: 97b5 8343 ff02 8706 288b 5f21 cc60 5434
00000130: c930 1500 c930 1500 e2dc 5643 a360 3200
00000140: c930 1500 4172 831b c930 1500 9d77 5c35
00000150: 2e2f 7d04 d8bc da3f e659 4519 c930 1500
00000160: 1064 5943 aaa4 a93a 3831 1500 fd9b 9141
00000170: c930 1500 7520 8b42 5ed6 a101 faf3 7941
00000180: 9455 0302 4d3c b004 c930 1500 a1a5 fd42
00000190: c930 1500 c930 1500 4b18 ef43 1981 c70c
000001a0: 3b60 c404 1428 b502 8bb5 e508 0c3d 7009
000001b0: 428c de02 7232 1500 6e73 aa28 c930 1500
000001c0: c930 1500 5871 1500 36f8 d541 c930 1500
000001d0: a4b8 ef42 cea1 be43 c930 1500 cca4 7e01
000001e0: c930 1500 1f5b 1500 a708 3205 59a1 5f01
000001f0: 0c9e e338 3b9a 4a36 58a3 a709 0d7d 1c30
00000200: 9d11 1c01 f0ef bd2b c930 1500 0338 d440
00000210: 1469 9142 cfdc a302 fddd ca43 3297 1900
00000220: fc30 1500 522c 3743 4e01 0941 59ca ed1f
00000230: c930 1500 5dde 2f00 32b3 8201 9289 3e05
00000240: dd34 8004 2ac4 ce18 946d e241 349e bd32
00000250: 9223 c804 6118 1700 150f 1900 9547 1830
00000260: a48c b900 bcf5 1942 8f3c 9426 870d 2903
00000270: 5cca 3308 c930 1500 22cf b216 1e58 6843
00000280: c930 1500 ffdf d834 c930 1500 3cb2 070e
00000290: 21ac 2b39 156b e043 c930 1500 834c 2343
000002a0: fd9f eb42 ab48 1500 504b af05 0c4c 1500
000002b0: d731 1500 32d5 1941 7a30 d143 c886 a523
000002c0: c930 1500 fd87 ca04 59c8 e940 57ad d809
000002d0: ae23 e843 10c4 a53f 8a6e 2006 7a7a 1900
000002e0: 24d9 da28 1838 1500 65b1 c33f 8868 8743
000002f0: 1272 2735 b4df 462e f620 7e06 da3d ff40
00000300: 726b 0835 7486 af28 2889 4a42 1735 1500
00000310: c930 1500 ba16 9134 5ed1 d402 7f0f 9a42
00000320: d2c7 1500 feec b543 c930 1500 4e26 da35
00000330: 339d 3c2a 81c8 f641 2d2e 2040 c930 1500
00000340: fa93 9434 c930 1500 f496 e943 592d aa01
00000350: fc30 1500 119c bb30 8b6e fd0a e8f5 5a43
00000360: 1c36 1500 ea73 1500 ccb5 1500 2a26 9600
00000370: ca2c 8c43 5dd3 9642 c930 1500 1069 0641
00000380: c930 1500 c930 1500 33b4 f702 4a3b 1500
00000390: 64a5 5503 7f1e f443 9d9d 8636 7f8f ae40
000003a0: a7f0 b935 d296 1d2c 132f 4132 c930 1500
000003b0: 82fc 9d22 cb4e 4e34 0944 0936 c825 8234
000003c0: fb34 a442 9bbb 1600 4783 3941 1309 7843
000003d0: 9335 2841 ad86 5c00 c930 1500 0a82 4240
000003e0: c930 1500 20b9 1500 b845 1500 a36f 8d2b
000003f0: 2e02 5833 c930 1500 c1ed b542 c930 1500
6.590532 23.137152 1.0312289e-31 1.1702954e-06 1.946053e-39 11.206548 1.946046e-39 1.946046e-39
1.946046e-39 1.2808287e-34 5.662266e-34 4.922281e-39 1.949866e-39 1.946046e-39 17.463755 1.946046e-39
8.947771e-08 2.1713329e-06 2.3433791e-38 0.008016216 87.8704 1.946046e-39 231.24898 9.880857e-15
164.29028 1.946046e-39 232.23842 1.946046e-39 6.046511 2.464825e-39 248.70988 7.348557e-36
1.946046e-39 3.7761213e-37 1.946046e-39 2.0970135e-19 1.4160667e-33 1.4665025e-36 1.3831581e-06 1.946046e-39
1.946046e-39 370.2156 8.2510936e-11 2.3761559e-16 2.3832428 52.363556 321.11832 7.79932e-36
94.46261 1.946046e-39 6.738177e-33 0.80528855 1.2405832e-34 3.3049067e-12 1.5380684e-07 1.946046e-39
1.946046e-39 6.33785e-10 1.946046e-39 22.697971 7.193918e-06 1.946046e-39 161.39384 8.9644686e-07
183.53293 9.653474e-34 3.491087e-36 1.6417141e-07 1.946046e-39 14.851177 61.82691 1.946046e-39
263.41867 5.078576e-35 7.573951e-19 1.9779253e-07 1.946046e-39 1.946046e-39 214.86282 4.626442e-39
1.946046e-39 2.1745967e-22 1.946046e-39 8.2130447e-07 2.9761671e-36 1.708888 1.0202816e-23 1.946046e-39
217.39087 0.001294275 1.946202e-39 18.201166 1.946046e-39 69.56339 5.944966e-38 15.622065
9.64892e-38 4.143278e-36 1.946046e-39 126.823494 1.946046e-39 1.946046e-39 478.1898 3.0738503e-31
4.6167752e-36 2.6618563e-37 1.3825117e-33 2.8917653e-33 3.2700472e-37 1.946642e-39 1.8923851e-14 1.946046e-39
1.946046e-39 1.969205e-39 26.746197 1.946046e-39 119.86063 381.2641 1.946046e-39 4.6770668e-38
1.946046e-39 1.961234e-39 8.371109e-36 4.1074393e-38 0.00010853642 3.019012e-06 4.0357395e-33 5.693018e-10
2.8665312e-38 1.3495854e-12 1.946046e-39 6.6318374 72.70523 2.4077435e-37 405.73428 2.350126e-39
1.946118e-39 183.17313 8.562819 1.0070816e-19 1.946046e-39 4.396037e-39 4.801159e-38 8.959025e-36
3.0141203e-36 5.3447827e-24 28.303505 2.2074438e-08 4.705244e-36 2.120962e-39 2.301298e-39 5.5399e-10
1.7040019e-38 38.489975 1.0285977e-15 4.9680165e-37 5.4103725e-34 1.946046e-39 2.888817e-25 232.34421
1.946046e-39 4.0396114e-07 1.946046e-39 1.6725851e-30 0.00016371954 448.83658 1.946046e-39 163.29887
117.81248 1.954614e-39 1.6484586e-35 1.955826e-39 1.946425e-39 9.61455 418.37872 1.7946418e-17
1.946046e-39 4.7614857e-36 7.3057065 5.2163117e-33 464.27875 1.2950459 3.0173867e-35 2.339824e-39
2.4297032e-14 1.948668e-39 1.5288512 270.81665 6.237834e-07 4.5218676e-11 4.7796306e-35 7.9763002
5.08203e-07 1.9487213e-14 50.63394 1.94759e-39 1.946046e-39 2.702489e-07 3.1270771e-37 77.030266
2.000227e-39 363.8515 1.946046e-39 1.6253414e-06 1.6752294e-13 30.847902 2.5028183 1.946046e-39
2.7674815e-07 1.946046e-39 467.17932 6.251321e-38 1.946118e-39 1.3650397e-09 2.4404595e-32 218.96057
1.947956e-39 1.970128e-39 1.993762e-39 1.3789015e-38 280.3499 75.41282 1.946046e-39 8.40065
1.946046e-39 1.946046e-39 3.6396817e-37 1.949814e-39 6.2784933e-37 488.23825 4.01186e-06 5.4550166
1.3853613e-06 2.2394764e-12 1.1244782e-08 1.946046e-39 4.282229e-18 1.921391e-07 2.0454193e-06 2.4241876e-07
82.10348 2.087681e-39 11.59455 248.03545 10.51308 8.497178e-39 1.946046e-39 3.039187
1.946046e-39 1.994956e-39 1.953556e-39 1.0049638e-12 5.02934e-08 1.946046e-39 90.96436 1.946046e-39

decoder.0.weight f4 [13, 300]
00000000: 0671 b83e c4a7 d4bd c9c2 fabe e64e b33e
00000010: bc4b 07bf 9dc6 64be 2e7f f0be d92d febe
00000020: 2a8f 08bf 6438 0bbf 78ac 013f c857 013f
00000030: d68a e4be ca13 083f c26b 063f 100d 013f
00000040: a0aa e83d d409 4cbd bdaf 81be 286b 86be
00000050: 5538 c23e 2117 063f 85ea 013f 904d bf3e
00000060: 2001 d7be f044 ff3e f10d a53e 702a e83e
00000070: b4b2 683e bbdf 07bf 2b48 163f 2bea e03e
00000080: 0c04 dabe f65b 09bf 8f2e 00bf cc09 3f3e
00000090: 6429 f1be b2fe cbbe 3397 013f 5e65 e7be
000000a0: 2689 e9be a751 b1be 84a6 043f 04a0 96bd
000000b0: 2609 d4be 1a60 d8be 8457 f63e 7108 f0be
000000c0: 442b 2fbe ddc9 063f 8187 d1be 066d c7bd
000000d0: d73a ef3e 613e edbe 94dc ebbe b658 003f
000000e0: 3c6b 00bf b83b d0be af30 003f bef7 a9be
000000f0: 8fd5 16bf 14e4 fa3e a7cb 52bc 3980 fabe
00000100: 34c6 f63e cc37 063f fb36 ecbe 87cc 1cbf
00000110: 77cd f1be 0b4b 053f 06c0 71bd d487 013f
00000120: 3ffc 303f df19 c1be 4157 87bc 34a7 00bf
00000130: 416a dfbe dfe1 023f 5b44 b8be 7ead 01bf
00000140: cbf1 ff3e 27f5 02bf d19a 08bf e19b fabe
00000150: 8687 f0be 4b7f 043f 03d6 05bf fa02 f13e
00000160: 3ea0 eabe 2eab aabe 5f3e f3be fbf8 193f
00000170: 6c31 f8be 3a6e c3be 863a c6be d3a4 64be
00000180: fa77 02bf 1cb5 dd3e aed1 e6be f43d f83e
00000190: ffa9 02bf b5cb 08bf 3fda edbe fb1e febe
000001a0: ac3c babe 73dc b2be fadd c7be b58b 08bf
000001b0: ddc5 e2be ffa3 ebbe c1c3 d7be 7e1b e2be
000001c0: 3e17 043f 7e0b f5be 2081 023f 54d7 f93e
000001d0: 903f c3be f230 023f 2991 e1be 9c3f 01bf
000001e0: 054a 08bf 5708 d03e 037c 503e 8db2 04bf
000001f0: 5ca2 82be 5b55 eebe 5e57 01bf 9d8c 8cbe
00000200: 0bee a23e 32e5 ed3e f49e efbe e5e9 e83e
00000210: 9cc7 88be 3652 eabe 1290 013f 48b0 eabe
00000220: 4ebf 053f a677 edbe 2f81 df3e dd6e fabe
00000230: a42a ffbe b328 fc3e d627 003f 3cb9 fa3e
00000240: ffcf e03e 8c88 f33e 31c0 173f c098 dc3e
00000250: 6db8 e0be 475f f73e 477b fd3e 658d adbe
00000260: 0be4 f6be c800 193f ee05 d13e 2249 01bf
00000270: 1948 fdbe 5a57 fabe 5e8a 003f 489b 073f
00000280: 6bff 063f 1fba 27bf f552 07bf 577a 00bf
00000290: ef14 d5bd e3aa 923e 5426 fabe bdd4 003f
000002a0: 1061 093f 0155 f23e a376 c63e 5f0a 083f
000002b0: 57cd f83e ef5f 0e3f 37c3 f1be 0908 f33e
000002c0: faa1 08bf 36e0 c9be fe58 d23e a082 f53e
000002d0: d1b1 bdbe b084 a2be 89e1 f6be 0835 02bf
000002e0: 5be4 d33e bcdd ed3e 53fa 8ebe f678 e9be
000002f0: ebb7 ca3e df54 d7be cf5e d7be bdb9 e03e
00000300: 5d5e e43e b09c c5be aecf 0a3f 8f9d e53e
00000310: 9e3d ebbe 04a4 e93d d222 d7be 34ec 0c3f
00000320: 7997 e9be 641f c7be b0be 00bf 4952 e23e
00000330: f7ed e63e c411 2b3f 8fcf 44be dce9 023f
00000340: 0371 1e3f 1b93 073f 15f3 d5be e39a f53e
00000350: 7805 ffbe 4431 9abe 9f67 da3e 140f ed3e
00000360: faf7 dfbe 99ee f93e c143 fb3e c9e8 003f
00000370: eefd f3be 6db4 e83e ebba e3be f8b1 163f
00000380: 8b4e fc3e c54f 063f 6930 fd3e f26a f0be
00000390: 7d9b 023f a126 f63e 15d9 dabe 1966 c43e
000003a0: 2994 833e 9f58 013f b4b1 dcbe f6c2 f83e
000003b0: af4f 133f 2c0f 2fbe d4ad f7be c9a1 34bf
000003c0: 1cb3 0e3f 6526 fe3e ab55 153f 20d0 df3e
000003d0: 0aa6 143f 9c9d 04bf 1581 01bf 6b8f c93e
000003e0: df70 013f db8c ca3e 19f1 f33e afad ef3e
000003f0: 4811 543d f8ec 01bf 10c7 f73e f9ef e5be
0.3602373 -0.10383561 -0.48976734 0.35021132 -0.52849936 -0.2234139 -0.4697203 -0.49644354
-0.5334345 -0.5438292 0.5065379 0.5052457 -0.44637173 0.53155196 0.52508175 0.50410557
0.11360669 -0.04981406 -0.2532939 -0.2625363 0.37933603 0.5237904 0.50748473 0.37363863
-0.41993046 0.49857283 0.322372 0.45344877 0.2272442 -0.5307576 0.5870387 0.43928656
-0.42581213 -0.53655946 -0.5007104 0.18656081 -0.4710189 -0.39842755 0.50621337 -0.45194525
-0.45612448 -0.34632608 0.5181658 -0.07354739 -0.4141323 -0.4226082 0.48113644 -0.4688144
-0.17106348 0.5265177 -0.40923694 -0.097375914 0.4672458 -0.46336654 -0.46066725 0.5013536
-0.50163627 -0.40670562 0.50074285 -0.33196825 -0.58919615 0.49002135 -0.012865937 -0.4892595
0.48198092 0.5242889 -0.46135697 -0.61249584 -0.4722707 0.5206763 -0.05902102 0.5059788
0.69134897 -0.3771505 -0.016521098 -0.5025513 -0.43635753 0.511259 -0.3598965 -0.50655353
0.4998916 -0.5115532 -0.5336123 -0.4894705 -0.46978396 0.51756734 -0.5227968 0.47072583
-0.4582538 -0.33333725 -0.47508523 0.6014554 -0.48475206 -0.38170034 -0.38716525 -0.223285
-0.5096432 0.43302238 -0.45081848 0.48484766 -0.51040643 -0.5343583 -0.4645557 -0.4963301
-0.36374414 -0.34933814 -0.39036542 -0.53338176 -0.44291583 -0.46023557 -0.42141536 -0.441616
0.51597965 -0.4786033 0.5097828 0.48797095 -0.38134432 0.50855935 -0.4405606 -0.50487685
-0.53237945 0.40631363 0.20359807 -0.51834947 -0.25514495 -0.46549496 -0.50523937 -0.2745103
0.31822237 0.46463925 -0.4680096 0.45490947 -0.2671479 -0.45765847 0.5061046 -0.45837617
0.5224503 -0.46380347 0.43653247 -0.48912707 -0.4983722 0.492498 0.50060785 0.48969448
0.43908688 0.47565114 0.59277636 0.4308529 -0.43890706 0.48314878 0.49508116 -0.33896938
-0.48220858 0.5976682 0.40824836 -0.50502217 -0.4946907 -0.4889477 0.5021113 0.52971315
0.52733487 -0.65518373 -0.5286096 -0.50186676 -0.104043834 0.28646 -0.48857367 0.5032461
0.5366373 0.47330478 0.38762388 0.53140825 0.48594162 0.55615133 -0.4721925 0.47467068
-0.53372157 -0.39428872 0.4108352 0.4795122 -0.37049726 -0.31741858 -0.48218945 -0.5086217
0.4138516 0.46458232 -0.27925357 -0.45600098 0.39593443 -0.4205694 -0.4206452 0.43891707
0.44603243 -0.38596106 0.54223144 0.4484677 -0.45945448 0.114082366 -0.42018753 0.5504792
-0.45623377 -0.38891137 -0.50290966 0.44203404 0.45103428 0.66823983 -0.19219802 0.5113809
0.6189119 0.5295884 -0.4178702 0.47969732 -0.4980886 -0.30115712 0.42657182 0.46300566
-0.4374388 0.48814848 0.4907513 0.503552 -0.4765467 0.45450154 -0.44478545 0.5886531
0.49278674 0.5246547 0.49450997 -0.46956593 0.51018506 0.48076347 -0.42743745 0.38359144
0.25698975 0.5052585 -0.43104327 0.48586243 0.5754346 -0.17095631 -0.48374808 -0.70559365
0.5574205 0.49638668 0.58333844 0.43713474 0.58065856 -0.5180299 -0.5058759 0.39367232
0.5056285 0.3956059 0.4764488 0.46812198 0.051774293 -0.5075221 0.4839406 -0.44909647

decoder.0.bias f4 [13]
00000000: c40f d23e 12aa bf3e 26ae d83e aec7 ef3e
00000010: 7d80 d23e 84aa e03e bae9 9e3d ad92 063e
00000020: 946b 913d bee3 8c3d 967b 843d f296 7a3d
00000030: 6967 b13d
0.41027653 0.3743444 0.42320365 0.4683203 0.41113654 0.43880093 0.077594236 0.1314189
0.07100597 0.06879376 0.06468885 0.06117911 0.08662302
